dqn.pth (torch, 685565 bytes, 30 tensors)

actor.model.0.weight f4 [128, 51]
0.1365602 0.18835065 -0.0077480027 0.010474405 -0.10554202 0.47903985 0.023987617 -0.2070821
0.07004168 -0.16678694 0.5423049 0.09298425 -0.016455349 0.12109945 0.18177791 0.22207636
-0.1288604 0.34370223 0.50990045 0.08875122 0.048166852 -0.38163805 -0.3058862 -0.0865483
0.24109271 0.07255854 0.06588899 -0.0625779 0.13218474 -0.020120239 -0.2639098 -0.29737788
-0.01659024 -0.09228905 0.0117340535 0.40755072 0.107094005 0.0014456175 -0.01694514 0.03213833
-0.09487565 -0.31600294 -0.060475193 0.09456817 -0.0974168 -0.17500526 -0.046407145 0.14874089
0.065303646 -0.13181062 -0.054994047 0.119801335 -0.06240533 0.09874607 -0.1702059 0.021490216
0.04014319 0.27102426 0.13021553 -0.26066214 -0.30301332 -0.029591074 0.13827343 -0.17678352
-0.07774141 -0.08174132 -0.16269533 -0.14150593 0.32114595 -0.12537567 0.068627656 0.1463646
-0.03689822 0.015009764 0.20595981 0.024229662 0.41666517 -0.051936977 -0.10485784 0.1673505
-0.09770758 0.18939154 0.021007728 -0.049942173 0.13077454 0.100667514 0.20710993 -0.19374663
0.07865575 -0.009334623 -0.1354601 -0.09926071 0.25463074 0.09613579 0.017404139 0.21886039
-0.11055667 -0.049973723 -0.021283848 0.09009942 -0.1222467 0.17549492 -0.12448521 0.17396659
0.013561775 -0.24455328 0.07974183 -0.33302277 0.16030587 -0.14814027 -0.17093565 -0.006311441
0.10664443 0.027017793 0.12329243 0.0673083 0.16123474 0.026564129 0.3487995 -0.04831734
0.18829346 0.23018834 -0.065158546 -0.18770592 0.11123423 -0.07691294 0.008317396 -0.26806518
0.026390722 0.10436633 -0.006750542 -0.09139767 0.14527072 0.030310694 0.061851773 -0.14167744
0.054214817 0.10150597 0.16498584 -0.05169675 -0.11345087 -0.08043589 0.18131746 -0.0018723517
0.19030942 -0.045662757 0.18151756 -0.029665893 -0.080396675 0.028207064 0.05226205 0.078585856
-0.19733283 -0.003922999 -0.055959642 0.10661927 0.032321647 0.0065748543 0.11075531 -0.12993295
-0.113606706 -0.12456918 -0.089757666 0.035423726 -0.045126602 -0.094049335 -0.0880298 0.060151786
0.025100425 -0.014343336 0.09553525 0.11831017 0.017937109 -0.06580337 0.100599214 -0.0044029355
0.0101477355 0.029636905 -0.12160967 0.072058424 0.082160085 -0.11550294 -0.058186002 -0.09015772
-0.025174357 0.049375966 -0.013648421 0.025585294 -0.02605898 -0.120319985 -0.0012226999 -0.037582025
0.07335235 -0.0654703 -0.1198053 0.11219238 0.049539402 -0.04542528 0.1342478 -0.09537916
-0.027188241 0.061701357 0.0323496 0.09311272 0.014146737 0.05033275 0.23937926 -0.22930561
0.08399161 -0.11480916 0.1793223 0.16944678 0.014041541 -0.038703088 -0.31204528 0.04037952
-0.027884215 0.0018292153 -0.08602924 -0.0022502549 -0.03366546 -0.082471535 -0.03835519 0.03639416
0.086998515 -0.081907995 -0.14047348 -0.09020364 -0.19537145 0.107024185 -0.026198043 -0.057235032
-0.041611027 0.0709964 0.11691303 0.18310311 0.08169371 -0.0034766342 0.11778718 -0.2238938
0.121988565 -0.084465764 0.048236094 -0.0582755 -0.05176326 0.10970601 0.03685327 0.033228923
-0.068701416 0.1311395 -0.007732115 0.11031314 0.016687237 0.0240418 0.119128756 0.07661563
00000000: 70d6 0b3e fede 403e f5e2 fdbb d79c 2b3c
00000010: 6a26 d8bd b644 f53e ae81 c43c 540d 54be
00000020: 0372 8f3d 32ca 2abe 7ed4 0a3f 876e be3d
00000030: 5ecd 86bc fd02 f83d fd23 3a3e fc67 633e
00000040: fbf3 03be bdf9 af3e d688 023f 33c3 b53d
00000050: 9b4a 453d 1066 c3be 1e9d 9cbe 3c40 b1bd
00000060: 02e1 763e 9299 943d cff0 863d d828 80bd
00000070: 705b 073e 33d3 a4bc 2f1f 87be ea41 98be
00000080: 41e8 87bc 0b02 bdbd 3040 403c 7daa d03e
00000090: 1a54 db3d e07a bd3a 89d0 8abc 7ba3 033d
000000a0: 2a4e c2bd 23cb a1be d6b4 77bd f5ac c13d
000000b0: 7682 c7bd 9434 33be 6b15 3ebd 884f 183e
000000c0: ebbd 853d 5df9 06be 7041 61bd 675a f53d
000000d0: bb9c 7fbd 613b ca3d 754a 2ebe 400c b03c
000000e0: 306d 243d b1c3 8a3e 3857 053e 8275 85be
000000f0: 9024 9bbe fb68 f2bc 8d97 0d3e bd06 35be
00000100: e336 9fbd fe67 a7bd 9b99 26be eee6 10be
00000110: 3e6d a43e 7b62 00be a88c 8c3d 9ae0 153e
00000120: 9722 17bd 83eb 753c 21e7 523e 497d c63c
00000130: 2355 d53e debb 54bd b5bf d6bd ee5d 2b3e
00000140: e91a c8bd dbef 413e 6618 ac3c 2a90 4cbd
00000150: c3e9 053e c52a ce3d a014 543e 8465 46be
00000160: 4416 a13d 3ff0 18bc 0db6 0abe 3349 cbbd
00000170: f65e 823e d7e2 c43d 2093 8e3c f01c 603e
00000180: 896b e2bd 3fb1 4cbd 775b aebc 0b86 b83d
00000190: 7a5c fabd f1b4 333e 1af2 febd 4c24 323e
000001a0: 3532 5e3c 2d6c 7abe af4f a33d f681 aabe
000001b0: 3927 243e 15b2 17be c109 2fbe 34d0 cebb
000001c0: 6568 da3d 6b54 dd3c be80 fc3d efd8 893d
000001d0: b81a 253e 049d d93c d995 b23e 67e8 45bd
000001e0: 00d0 403e 7eb6 6b3e d871 85bd fb35 40be
000001f0: c6ce e33d 8884 9dbd b045 083c d73f 89be
00000200: 5b31 d83c 04be d53d a733 ddbb b42e bbbd
00000210: d9c1 143e 224e f83c 4958 7d3d e413 11be
00000220: 5b10 5e3d 5de2 cf3d 0cf2 283e f9bf 53bd
00000230: ee58 e8bd 92bb a4bd 49ab 393e b369 f5ba
00000240: 79e0 423e df08 3bbd bddf 393e e305 f3bc
00000250: 03a7 a4bd 8012 e73c bb10 563d 9ff1 a03d
00000260: 9e11 4abe 808c 80bb f035 65bd 345b da3d
00000270: b463 043d e071 d73b aed3 e23d 250d 05be
00000280: a2aa e8bd 201e ffbd ded2 b7bd 7818 113d
00000290: acd6 38bd f09c c0bd f848 b4bd b861 763d
000002a0: 689f cd3c 5000 6bbc fca7 c33d 9a4c f23d
000002b0: d8f0 923c ebc3 86bd f606 ce3d 8046 90bb
000002c0: b042 263c 18c9 f23c 7e0e f9bd 5e93 933d
000002d0: 8c43 a83d ce8c ecbd 7254 6ebd 9ca4 b8bd
000002e0: 743a cebc 743e 4a3d a09d 5fbc 4098 d13c
000002f0: a479 d5bc 536a f6bd 0043 a0ba 9cef 19bd
00000300: c239 963d 4b15 86bd 7b5c f5bd 1ec5 e53d
00000310: d4e9 4a3d dc0f 3abd 4178 093e 2656 c3bd
00000320: e0b9 debc 90ba 7c3d 0481 043d e2b1 be3d
00000330: b7c7 673c b729 4e3d d61f 753e 17cf 6abe
00000340: cb03 ac3d 1121 ebbd 44a0 373e 7583 2d3e
00000350: 7e0e 663c 2187 1ebd 66c4 9fbe ff64 253d
00000360: 706d e4bc 48c2 ef3a 1930 b0bd 0379 13bb
00000370: cbe4 09bd d6e6 a8bd 551a 1dbd 0b12 153d
00000380: 472c b23d 61bf a7bd 48d8 0fbe b0bc b8bd
00000390: 740f 48be 7f2f db3d 479d d6bc 486f 6abd
000003a0: 5370 2abd 9066 913d 1970 ef3d 627f 3b3e
000003b0: 084f a73d 3ed8 63bb 683a f13d 6b44 65be
000003c0: 24d5 f93d 63fc acbd 3693 453d 4ab2 6ebd
000003d0: b605 54bd 8bad e03d 74f3 163d 0d1b 083d
000003e0: 54b3 8cbd 6f49 063e af5d fdbb dbeb e13d
000003f0: acb3 883c 4ff3 c43c c7f9 f33d a8e8 9c3d

actor.model.0.bias f4 [128]
0.12325659 0.09997322 0.06293518 -0.12749232 0.12910594 -0.0015927639 -0.11355339 0.0699029
0.004242656 0.03248929 0.17555907 -0.07765598 -0.14310437 -0.037908375 0.065181404 0.02121886
0.11388092 -0.14735243 0.023431726 -0.13270262 -0.16111393 -0.027719142 -0.13635615 0.0935771
-0.0056182207 -0.06497977 0.13062052 -0.085282624 -0.019619739 0.12610751 -0.09515979 -0.03426675
-0.06555064 0.08226899 -0.07316375 0.2825779 -0.097733416 -0.13119517 0.017787894 -0.050163217
0.35945743 0.029726472 -0.09259309 0.21198905 0.04191258 -0.12830356 -0.09956008 -0.124506265
-0.009644448 0.15238856 -0.020707164 -0.10216257 -0.018917425 0.08682926 -0.15142003 0.004788186
0.04195163 -0.0023819802 -0.07635864 -0.11132397 0.11815088 -0.00054541917 -0.027767543 0.06591131
-0.030639308 -0.07676684 0.15252872 -0.10155252 -0.18744084 -0.057655707 -0.0036949539 0.1052429
-0.19016047 0.13622627 -0.11243716 -0.090201825 -0.08357895 -0.09686917 0.012178956 -0.012880501
0.08186767 -0.062327217 -0.0120012015 -0.14924313 -0.091992065 0.053260446 -0.13422082 -0.037532147
-0.13643765 0.050011978 -0.08463823 0.018793078 -0.1071162 -0.00043543792 -0.13871692 -0.1733309
-0.09784146 -0.11169808 0.005908759 0.047980573 -0.085159615 -0.019709842 -0.05641194 -0.15400964
0.052039072 0.11699958 -0.07399737 -0.111318134 -0.05423782 0.009005042 0.12327077 -0.15279491
0.08274005 -0.02327634 -0.09879134 -0.03333447 0.008339621 -0.036717843 -0.053679552 -0.047392003
-0.05924921 0.081579596 -0.03836835 -0.023632074 -0.13811901 -0.015271928 -0.11405936 0.056612916
00000000: f36d fc3d c2be cc3d 29e4 803d 598d 02be
00000010: 5934 043e 4ac4 d0ba ae8e e8bd 4029 8f3d
00000020: fa05 8b3b 7d13 053d c2c5 333e 190a 9fbd
00000030: f489 12be d045 1bbd d47d 853d 2dd3 ad3c
00000040: 663a e93d 8ee3 16be e4f3 bf3c 32e3 07be
00000050: 0dfb 24be 4113 e3bc f2a0 0bbe 5aa5 bf3d
00000060: 0d19 b8bb 1d14 85bd 63c1 053e a8a8 aebd
00000070: 93b9 a0bc 5422 013e 23e3 c2bd 4b5b 0cbd
00000080: 6a3f 86bd a57c a83d e0d6 95bd 0dae 903e
00000090: 7528 c8bd 0758 06be ebb7 913c f277 4dbd
000000a0: ce0a b83e ee84 f33c 72a1 bdbd a813 593e
000000b0: 87ac 2b3d 0262 03be 28e6 cbbd 24fd febd
000000c0: bf03 1ebc bf0b 1c3e 12a2 a9bc 9c3a d1bd
000000d0: b7f8 9abc 8ad3 b13d da0d 1bbe 37e6 9c3b
000000e0: 79d5 2b3d ff1a 1cbb eb61 9cbd d2fd e3bd
000000f0: 17f9 f13d 76fa 0eba c278 e3bc 82fc 863d
00000100: 49ff fabc ef37 9dbd 7d30 1c3e c5fa cfbd
00000110: 7ef0 3fbe 6428 6cbd 0a27 72bb 9789 d73d
00000120: 6db9 42be e67e 0b3e 7445 e6bd bcbb b8bd
00000130: 712b abbd 5863 c6bd 3e8a 473c bd08 53bc
00000140: 3daa a73d d34a 7fbd b0a0 44bc 31d3 18be
00000150: 5666 bcbd a027 5a3d 2f71 09be 4fbb 19bd
00000160: 50b6 0bbe 5cd9 4c3d cf56 adbd f1f3 993c
00000170: bd5f dbbd 7d4b e4b9 cf0b 0ebe a87d 31be
00000180: 1a61 c8bd f7c1 e4bd 439e c13b 4787 443d
00000190: 2a68 aebd 8976 a1bc 3510 67bd b4b4 1dbe
000001a0: ec26 553d 7a9d ef3d ef8b 97bd c3fa e3bd
000001b0: 7a28 5ebd e289 133c 6375 fc3d 4576 1cbe
000001c0: 9e73 a93d 06ae bebc 1d53 cabd ba89 08bd
000001d0: e8a2 083c 7365 16bd 17df 5bbd 1e1e 42bd
000001e0: 4daf 72bd 3413 a73d 2228 1dbd 0d98 c1bc
000001f0: 126f 0dbe 1c37 7abc f497 e9bd f2e2 673d

actor.model.2.weight f4 [128, 128]
0.04752634 0.06300958 0.0064344504 0.07498967 0.037222404 -0.107235305 0.028983228 0.043825343
0.044569403 -0.0013382392 -0.04979538 0.014910151 -0.10349081 -0.066598125 0.008587988 -0.058549564
-0.09934103 -0.024482531 -0.046648636 0.057543673 -0.06740457 -0.11272919 0.012402363 0.05779934
-0.047224537 -0.0058303988 0.005661824 -0.011363132 0.045459624 -0.0592101 0.033888508 0.066534914
-0.046930093 -0.09663593 0.031679515 -0.086348325 -0.017420834 -0.060597785 -0.058823578 -0.116508335
-0.050376687 0.029173432 -0.022080999 -0.084056094 -0.023283402 -0.10992586 0.024101704 -0.03868575
-0.074124 0.0014775905 -0.15968047 -0.03691178 -0.021889996 0.013172098 -0.018838987 -0.021683242
-0.057319757 -0.102260485 0.07298666 0.02476868 0.01288086 -0.050664358 -0.07278944 -0.036332004
-0.17051949 0.008276752 0.09819948 -0.04738261 0.064740546 0.013565257 -0.08368558 -0.12197497
0.053113613 0.014206723 -0.042111192 -0.017294103 0.017382443 -0.08257337 -0.047633283 -0.11404485
-0.06780528 -4.507419e-05 -0.0776875 -0.04822058 -0.13253614 0.024551231 -0.015535511 0.0077262768
-0.087102346 0.06302375 -0.036019005 -0.09652921 -0.06360461 -0.13350277 0.002398505 0.0539752
0.05427847 0.05890993 -0.09315919 -0.066933624 -0.041884966 0.066260315 0.020497961 -0.03132505
-0.030394603 0.016216729 -0.12371823 0.0023910112 -0.008087841 0.08158615 -0.009628267 0.02091458
0.04200691 -0.013073933 0.042438272 -0.072456814 -0.068727024 -0.035615597 -0.07929047 0.0652326
0.043186005 0.019560272 -0.037789762 -0.13223942 -0.10926506 -0.08917544 -0.15741134 -0.05107364
0.15963706 0.109972164 -0.0012538607 0.010466509 0.03645187 -0.09895429 0.025894836 -0.11466529
0.10718036 0.17276946 -0.029415261 0.13987571 -0.060042992 -0.052431885 -0.09672766 0.095444836
0.028778585 0.025732374 0.05766171 0.021934249 -0.019277168 0.03204718 -0.020270497 -0.42333698
0.07516587 0.029280331 -0.17587471 -0.031260375 0.021043895 0.026382681 0.06710415 0.07437058
0.11007701 -0.25017962 0.039268956 0.3024435 -0.03260244 -0.07569281 -0.02784214 0.08093234
0.13528673 -0.0045836316 0.100520715 0.2200502 -0.013737469 0.09604838 -0.040734358 0.0018800199
0.008899447 -0.021407284 0.13120146 -0.022149973 0.016830027 0.13842943 -0.095258325 -0.12071638
-0.050634954 0.054682266 -0.043041132 -0.08230223 0.22341484 0.19201756 0.056544997 0.07826711
-0.0698556 0.04765568 0.25795728 0.23186621 -0.073817715 0.01690731 0.16402185 -0.09033174
-0.009920039 0.12238729 0.23414984 -0.0035301857 0.027486693 -0.06969013 0.019354254 0.32423934
0.20261618 0.1929438 -0.024836652 0.032413874 0.007846007 0.011498929 0.07733561 0.055035237
-0.020164914 -0.12380183 0.032683037 0.1624803 0.047522947 0.011134583 -0.10104752 0.10921432
-0.02993019 0.08024595 -0.009828507 0.07766721 -0.11429453 -0.043327723 0.02789328 0.010204068
-0.022941371 -0.3965554 0.030213045 0.098932594 0.111956306 -0.016598748 0.065063365 0.11961801
-0.18323004 0.19531083 0.07350896 -0.04551628 0.100865446 0.0072753355 0.21000285 -0.09412048
0.039697338 0.049391773 -0.0066478434 0.13192797 -0.0023847122 0.094744645 -0.16458042 0.11284567
00000000: fbaa 423d 2b0b 813d 15d8 d23b 2f94 993d
00000010: 8576 183d 2f9e dbbd 3c6e ed3c 3482 333d
00000020: 688e 363d db67 afba 3ef6 4bbd b549 743c
00000030: fdf2 d3bd 9964 88bd a2b4 0c3c abd1 6fbd
00000040: 4f73 cbbd 978f c8bc a412 3fbd eab2 6b3d
00000050: 680b 8abd 90de e6bd 4833 4b3c 00bf 6c3d
00000060: 846e 41bd ee0c bfbb d286 b93b 6e2c 3abc
00000070: df33 3a3d 4a86 72bd adce 0a3d 7543 883d
00000080: c539 40bd 0fe9 c5bd 61c2 013d 64d7 b0bd
00000090: 23b6 8ebc 6235 78bd fef0 70bd ec9b eebd
000000a0: c957 4ebd 1ffd ee3c 36e3 b4bc 9a25 acbd
000000b0: d5bc bebc cf20 e1bd f070 c53c f374 1ebd
000000c0: 53ce 97bd b6ab c13a 4783 23be ce30 17bd
000000d0: a652 b3bc c9cf 573c 3854 9abc 0ea1 b1bc
000000e0: 1fc8 6abd f26d d1bd 087a 953d b0e7 ca3c
000000f0: 3e0a 533c 6e85 4fbd a112 95bd ded0 14bd
00000100: a99c 2ebe 379b 073c cf1c c93d 4514 42bd
00000110: b196 843d d040 5e3c 5863 abbd 03ce f9bd
00000120: a98d 593d 51c3 683c c97c 2cbd 5dac 8dbc
00000130: a065 8e3c 3a1c a9bd 1e1b 43bd 5990 e9bd
00000140: 7fdd 8abd 0b0e 3db8 a01a 9fbd f182 45bd
00000150: 8eb7 07be aa1f c93c a888 7ebc b52c fd3b
00000160: b762 b2bd 9912 813d aa88 13bd 1bb1 c5bd
00000170: 2243 82bd f3b4 08be 3d30 1d3b 1915 5d3d
00000180: 1a53 5e3d 8a4b 713d 3fca bebd 7f14 89bd
00000190: 928f 2bbd 7db3 873d 57eb a73c b24e 00bd
000001a0: 1afe f8bc f2d8 843c fc5f fdbd 83b2 1c3b
000001b0: dd82 04bc a416 a73d e1bf 1dbc 0e55 ab3c
000001c0: 700f 2c3d 0d34 56bc c1d3 2d3d 3d64 94bd
000001d0: c1c0 8cbd a9e1 11bd 0b63 a2bd ab98 853d
000001e0: cfe3 303d dd3c a03c 70c9 1abd c569 07be
000001f0: 5cc6 dfbd 9da1 b6bd 7030 21be 9832 51bd
00000200: e677 233e 1639 e13d 9558 a4ba b87b 2b3c
00000210: 8e4e 153d 8ca8 cabd 6821 d43c a3d5 eabd
00000220: 6081 db3d 7aea 303e 46f8 f0bc 943b 0f3e
00000230: a4ef 75bd d1c2 56bd 2719 c6bd 9578 c33d
00000240: 11c1 eb3c b3cc d23c af2e 6c3d 74af b33c
00000250: 27eb 9dbc e743 033d 500e a6bc a0bf d8be
00000260: 90f0 993d 4edd ef3c 8018 34be e10a 00bd
00000270: 3f64 ac3c 7e20 d83c e76d 893d 9a4f 983d
00000280: 0e70 e13d 8b17 80be 7cd8 203d e0d9 9a3e
00000290: 238a 05bd d504 9bbd 3315 e4bc dbbf a53d
000002a0: 9b88 0a3e 4a32 96bb cedd cd3d d754 613e
000002b0: 1f13 61bc 03b5 c43d 12d9 26bd 006b f63a
000002c0: fcce 113c 545e afbc ad59 063e dc73 b5bc
000002d0: 20df 893c 72c0 0d3e cc16 c3bd 263a f7bd
000002e0: 9966 4fbd 83fa 5f3d e64b 30bd 128e a8bd
000002f0: dcc6 643e 40a0 443e ba9b 673d 824a a03d
00000300: 7410 8fbd 9a32 433d fa12 843e 566e 6d3e
00000310: be2d 97bd 3381 8a3c 58f5 273e d9ff b8bd
00000320: a987 22bc 30a6 fa3d fac4 6f3e b05a 67bb
00000330: c62b e13c b3b9 8ebd d08c 9e3c b302 a63e
00000340: 9e7a 4f3e 0f93 453e 3c76 cbbc 69c4 043d
00000350: 8a8c 003c 0166 3c3c 2262 9e3d a16c 613d
00000360: e430 a5bc d08b fdbd a6de 053d 3c61 263e
00000370: 6ca7 423d d36d 363c 01f2 cebd c2ab df3d
00000380: 2830 f5bc fd57 a43d bf07 21bc fc0f 9f3d
00000390: 4013 eabd 6978 31bd 7380 e43c f72e 273c
000003a0: 8bef bbbc 4f09 cbbe 5981 f73c 2c9d ca3d
000003b0: 5949 e53d 19fa 87bc f13f 853d 4afa f43d
000003c0: a8a0 3bbe 90ff 473e de8b 963d 476f 3abd
000003d0: 8b92 ce3d f065 ee3b fd0a 573e 3dc2 c0bd
000003e0: ad99 223d 074f 4a3d 27d6 d9bb 2018 073e
000003f0: d548 1cbb 7b09 c23d c587 28be a11b e73d

actor.model.2.bias f4 [128]
-0.05033603 -0.1306994 -0.09611865 -0.06946023 0.12917365 -0.0065530194 -0.16073288 -0.06514223
-0.022131037 0.00015353895 -0.121198036 0.07326297 0.037222214 -0.0281419 -0.15166938 -0.045248188
-0.0004718216 -0.02479879 -0.029619968 -0.0859453 0.05245399 -0.05160748 -0.010192351 -0.078962855
-0.12243417 -0.10877317 -0.049308863 -0.04802154 -0.08606567 0.15984266 0.21122786 -0.050915677
0.0050439457 -0.105291605 0.09840647 -0.04386099 0.00045350494 0.074525446 -0.004267334 -0.045654226
-0.039596673 -0.028203208 -0.059162837 0.0030693258 -0.04501806 -0.03654026 -0.0052976175 -0.05418096
-0.02620205 -0.11534035 -0.050373252 -0.0038118013 -0.010776031 -0.07066498 -0.035868 -0.0075655677
-0.08218122 -0.010939198 -0.08984368 -0.00876947 -0.07256171 -0.045145247 0.021895403 -0.014009379
-0.02106151 -0.008409736 -0.22965361 -0.0851392 0.040534783 0.07378525 0.009755741 -0.09666457
-0.0370956 0.08892317 -0.08675151 -0.09025108 -0.047100574 -0.034932364 -0.01042442 -0.086618915
-0.05110968 -0.04467705 0.0533263 -0.003032906 -0.061016005 0.0062709632 0.06493528 -0.014761081
-0.0028731267 -0.1594489 -0.045265567 -0.053607725 -0.06812963 -0.046557978 -0.035605084 -0.024323365
-0.04344184 -0.053686023 -0.074741855 -0.07436737 0.02129683 0.053810827 -0.02253217 -0.059033718
-0.0106659075 -0.06774275 -0.06365558 -0.07634788 0.15234889 -0.076260306 -0.021034503 0.017758055
-0.085695334 -0.03484124 -0.12776998 -0.01379938 -0.083897665 -0.041844208 -0.060272127 -0.04907652
-0.03266725 -0.08002724 -0.06703547 -0.05208911 -0.107950054 0.07122092 -0.07581307 -0.081767835
00000000: 272d 4ebd 10d6 05be dbd9 c4bd 2a41 8ebd
00000010: 1946 043e b6ba d6bb 2997 24be 4a69 85bd
00000020: 264c b5bc 4cff 2039 ad36 f8bd e50a 963d
00000030: 5276 183d d889 e6bc 384f 1bbe 2a56 39bd
00000040: d35e f7b9 d526 cbbc 93a5 f2bc 1704 b0bd
00000050: ffd9 563d 5d62 53bd d2fd 26bc 47b7 a1bd
00000060: c4be fabd 78c4 debd 17f8 49bd 3cb2 44bd
00000070: 3343 b0bd cbad 233e 1e4c 583e f58c 50bd
00000080: af47 a53b 20a3 d7bd 5589 c93d 95a7 33bd
00000090: 67c4 ed39 cca0 983d fed4 8bbb edff 3abd
000000a0: 1f30 22bd 6a0a e7bc bb54 72bd be26 493b
000000b0: db64 38bd 3dab 15bd a397 adbb dbec 5dbd
000000c0: aea5 d6bc 9037 ecbd 2f54 4ebd 6acf 79bb
000000d0: f38d 30bc cdb8 90bd 53ea 12bd 95e8 f7bb
000000e0: a14e a8bd 523a 33bc f7ff b7bd d3ad 0fbc
000000f0: 3c9b 94bd 39ea 38bd fd5d b33c 9887 65bc
00000100: 3089 acbc fdc8 09bc 512a 6bbe 765d aebd
00000110: cd07 263d b91c 973d 8bd6 1f3c 13f8 c5bd
00000120: 8ef1 17bd 5a1d b63d c7aa b1bd 8fd5 b8bd
00000130: 88ec 40bd 3d15 0fbd 30cb 2abc 4265 b1bd
00000140: 6258 51bd 48ff 36bd ae6c 5a3d b8c3 46bb
00000150: ebeb 79bd a77c cd3b cafc 843d 76d8 71bc
00000160: 114b 3cbb 9346 23be 6368 39bd c693 5bbd
00000170: 8c87 8bbd 94b3 3ebd a3d6 11bd cb41 c7bc
00000180: 12f0 31bd e0e5 5bbd 4212 99bd eb4d 98bd
00000190: b176 ae3c be68 5c3d 6395 b8bc 57cd 71bd
000001a0: 0fc0 2ebc b6bc 8abd db5d 82bd 475c 9cbd
000001b0: 5901 1c3e 5d2e 9cbd 8d50 acbc 5779 913c
000001c0: 0981 afbd b0b5 0ebd 22d6 02be cb16 62bc
000001d0: 8ad2 abbd d564 2bbd e8df 76bd 7604 49bd
000001e0: 18ce 05bd 52e5 a3bd e449 89bd 645b 55bd
000001f0: eb14 ddbd 46dc 913d e243 9bbd e575 a7bd

actor.model.4.weight f4 [128, 128]
0.044083595 -0.027632326 0.052726828 -0.043150313 0.04754559 0.06112423 0.031402495 -0.029983796
-0.04570175 0.013972099 0.04627644 0.0715663 -0.06703973 -0.032051835 -0.0869602 -0.047107425
0.032214426 -0.032098345 0.041236676 0.014155606 -0.06372596 -0.024533411 0.0032182038 0.06827024
-0.08483914 -0.07564138 -0.03334723 -0.05421048 0.06870598 0.045300726 0.02325096 0.052553434
6.2283994e-05 0.008611262 -0.03441543 0.011555239 -0.028115097 -0.07159289 -0.03171755 0.02287907
-0.008553773 -0.0131198345 -0.015372172 -0.07698144 0.06975171 0.04293029 -0.026866991 -0.03164596
0.068115644 -0.08417306 0.0130523 -0.008136779 0.041287284 0.046346016 0.035598353 0.052296087
0.06804092 -0.081910245 0.055516217 -0.09897743 -0.06437739 -0.02678643 -0.07087533 -0.055476516
-0.046297375 0.0382741 0.017194865 0.06610345 -0.00298941 0.030597843 -0.08920095 -0.063693754
-0.010293143 0.0066916267 0.06428268 0.055961 0.070513114 -0.092160955 -0.00724903 0.061960302
0.009674251 -0.08058689 0.011714145 0.029095545 -0.008848253 -0.06859794 -0.013441236 0.010198409
-0.0467121 -0.08227418 0.05837494 -0.07087069 0.030671852 0.0011430669 -0.096334465 -0.0146416575
0.069798075 -0.01964095 0.08696338 -0.039359845 -0.096672274 0.028165683 0.017880162 0.060528807
0.04757792 -0.036781292 -0.024045505 -0.0074929986 -0.043504357 -0.001275867 -0.022824127 -0.04333504
-0.06225442 0.062711276 -0.09121377 -0.064490095 0.074730955 -0.03145415 -0.039605882 -0.07003461
-0.090596065 0.0015286072 -0.022492928 0.038194183 -0.062577374 -0.04569771 -0.06851966 0.020007875
-0.19652066 -0.11154389 0.020176336 0.0061292797 -0.17359896 -0.028613407 -0.055852603 -0.025362505
-0.15477155 -0.023809385 0.045780998 0.036531635 0.11776786 0.065345764 -0.092342645 0.21458502
0.01847935 -0.019443672 0.030352602 -0.03780099 -0.28178966 0.014801246 0.061129373 0.037438724
0.066691406 -0.07944787 0.025315978 0.055942 0.057343267 -0.052883983 0.0644873 -0.022305377
-0.056432407 -0.07054329 0.010931814 -0.032487307 -0.08935125 -0.16873921 -0.07685952 -0.039382454
-0.03608982 0.071019456 0.037802596 -0.0751265 -0.06908288 0.012980653 -0.082969315 0.11736614
-0.010619403 -0.054395147 -0.011974789 0.27333292 -0.023034548 0.069945596 0.015652167 -0.04570339
0.056867383 -0.117698126 0.061065488 -0.038411412 -0.20254855 -0.074798465 0.09045797 0.065054245
-0.07102105 -0.023046995 -0.04033398 0.059314337 -0.067414865 -0.27835897 -0.075406455 -0.019131493
-0.13208646 -0.17963026 0.0050457725 0.021889424 -0.0040228902 0.076512925 0.059767 -0.0013862625
-0.06671549 0.138804 0.000838597 -0.025151366 0.08866618 -0.087451294 -0.030208075 0.084156975
-0.09759577 -0.014298026 0.060326483 0.07880598 0.051710732 -0.050918702 0.06864396 0.16813202
-0.044471987 0.008038782 0.01819717 -0.057588752 0.06295312 0.032294102 -0.05319709 0.032145634
-0.09549647 0.020126404 -0.183183 0.05017031 0.029672394 -0.073300965 0.13107474 0.1182248
-0.053848926 -0.072765216 -0.0390179 0.012406036 -0.05155709 -0.07939375 0.07044545 0.05633492
-0.092919044 -0.046790216 0.0020426016 -0.06090293 -0.009799682 -0.103314415 -0.043248605 -0.045644354
00000000: 0091 343d 305d e2bc 16f8 573d 62be 30bd
00000010: 2abf 423d 675d 7a3d e79f 003d 94a0 f5bc
00000020: c231 3bbd 3beb 643c 5d8c 3d3d 5a91 923d
00000030: 204c 89bd c948 03bd 3018 b2bd b7f3 40bd
00000040: 46f3 033d 8e79 03bd cae7 283d eaec 673c
00000050: c282 82bd 4bfa c8bc 80e8 523b 45d1 8b3d
00000060: 25c0 adbd dee9 9abd 1b97 08bd cf0b 5ebd
00000070: b9b5 8c3d 418d 393d cc78 be3c 4542 573d
00000080: 779e 8238 4016 0d3c 32f7 0cbd 2f52 3d3c
00000090: a251 e6bc 4b9f 92bd 43ea 01bd e36c bb3c
000000a0: 2025 0cbc 93f4 56bc 90db 7bbc 72a8 9dbd
000000b0: fcd9 8e3d acd7 2f3d 2a18 dcbc 329f 01bd
000000c0: 3780 8b3d ed62 acbd 50d9 553c 2050 05bc
000000d0: db1c 293d 52d5 3d3d 94cf 113d 6c34 563d
000000e0: 0a59 8b3d 8fc0 a7bd f964 633d aeb4 cabd
000000f0: 4bd8 83bd 376f dbbc 1627 91bd 583b 63bd
00000100: 51a2 3dbd 4dc5 1c3d 3fdc 8c3c 3f61 873d
00000110: fae9 43bb 54a8 fa3c fdae b6bd df71 82bd
00000120: 92a4 28bc 6f45 db3b a3a6 833d 5d37 653d
00000130: 2e69 903d e2be bcbd 4589 edbb 16ca 7d3d
00000140: c080 1e3c bd0a a5bd afec 3f3c c859 ee3c
00000150: 43f8 10bc 147d 8cbd a138 5cbc 3a17 273c
00000160: 3055 3fbd 5e7f a8bd 901a 6f3d a724 91bd
00000170: 8943 fb3c f6d2 953a 014b c5bd 90e3 6fbc
00000180: 4bf2 8e3d 0fe6 a0bc db19 b23d ca37 21bd
00000190: 1dfc c5bd b8bb e63c 6b79 923c 0eed 773d
000001a0: 11e1 423d fba7 16bd 14fb c4bc d487 f5bb
000001b0: a031 32bd fe3a a7ba aaf9 babc 1580 31bd
000001c0: 7efe 7ebd c56e 803d 49ce babd 6213 84bd
000001d0: 8b0c 993d 11d6 00bd c739 22bd 4e6e 8fbd
000001e0: 6e8a b9bd 8c5b c83a 1743 b8bc 8171 1c3d
000001f0: 9128 80bd 862d 3bbd 0954 8cbd 8ee7 a33c
00000200: b63c 49be 1f71 e4bd d848 a53c 20d8 c83b
00000210: edc3 31be aa66 eabc b3c5 64bd 07c5 cfbc
00000220: 6f7c 1ebe e60b c3bc db84 3b3d 32a2 153d
00000230: 4730 f13d 00d4 853d 241e bdbd 2dbc 5b3e
00000240: 0162 973c 5648 9fbc 05a6 f83c 36d5 1abd
00000250: bc46 90be ed80 723c cb62 7a3d 5959 193d
00000260: 8195 883d 91b5 a2bd 7463 cf3c 7023 653d
00000270: c6e0 6a3d e09c 58bd eb11 843d c4b9 b6bc
00000280: ab25 67bd 0079 90bd 5a1b 333c 6911 05bd
00000290: cafd b6bd f9c9 2cbe 8668 9dbd 7f4f 21bd
000002a0: ebd2 13bd a672 913d e5d6 1a3d ecdb 99bd
000002b0: 537b 8dbd ceac 543c d1eb a9bd a95d f03d
000002c0: 01fd 2dbc 72cd 5ebd e831 44bc 4bf2 8b3e
000002d0: f3b2 bcbc a33f 8f3d f938 803c 7a33 3bbd
000002e0: c6ed 683d b70b f1bd ce1f 7a3d 4955 1dbd
000002f0: e368 4fbe f02f 99bd 0742 b93d 293b 853d
00000300: 7c73 91bd 0dcd bcbc 3e35 25bd 97f3 723d
00000310: ce10 8abd 1185 8ebe b36e 9abd a6b9 9cbc
00000320: ac41 07be fff0 37be 0257 a53b 7351 b33c
00000330: 73d2 83bb cfb2 9c3d 3ece 743d 40b3 b5ba
00000340: 21a2 88bd a322 0e3e 4bd5 5b3a 3d0a cebc
00000350: 9d96 b53d aa19 b3bd ed76 f7bc 7e5a ac3d
00000360: 4be0 c7bd 4542 6abc e718 773d 0865 a13d
00000370: a2ce 533d 2190 50bd 3495 8c3d cd2a 2c3e
00000380: 4228 36bd 18b5 033c 3b12 953c 2fe2 6bbd
00000390: 91ed 803d d246 043d 31e5 59bd 24ab 033d
000003a0: a793 c3bd 21e0 a43c 5394 3bbe 627f 4d3d
000003b0: 8513 f33c d11e 96bd 7538 063e d81f f23d
000003c0: b190 5cbd ee05 95bd 3cd1 1fbd b042 4b3c
000003d0: 872d 53bd 3199 a2bd b445 903d 72bf 663d
000003e0: 574c bebd 19a7 3fbd 2bdd 053b 5a75 79bd
000003f0: d88e 20bc 8296 d3bd 7325 31bd 93f5 3abd

actor.model.4.bias f4 [128]
-0.09241277 -0.06744077 0.013789699 0.017037222 -0.030012148 -0.13656656 -0.06440684 0.15119267
-0.061823014 0.03426993 0.03212886 -0.017683823 -0.034587577 0.13047001 0.048257254 0.2162042
-0.09468572 -0.07852547 -0.09879983 -0.04752038 -0.08002862 -0.085407384 -0.13834152 0.0363624
-0.06711476 -0.08406242 0.004017445 -0.053628188 0.18656239 0.07103919 -0.12652911 -0.07912491
-0.06373564 -0.035487868 -0.092877775 -0.0787187 -0.023753518 -0.0472246 0.02363617 -0.009407091
-0.08068355 -0.039241344 -0.017523453 0.000664171 0.15171607 0.17495926 0.011672062 -0.0013554323
0.02578117 -0.002122934 -0.036217086 0.115408726 -0.07943191 -0.03993055 -0.04931159 -0.2048326
-0.09805689 0.015531779 -0.09280746 0.0829478 -0.14745776 -0.029796347 -0.056005314 -0.12791483
-0.094382316 -0.11939899 0.020417774 0.0016957609 -0.05497813 0.015574613 0.10267905 -0.08543323
-0.062163148 -0.046687823 -0.019323055 -0.07836716 0.18651693 0.05954423 -0.050948553 -0.13052528
-0.0676938 0.07506686 0.08211168 -0.11117128 0.04852313 -0.023144843 -0.025155982 -0.03585892
0.14406933 0.16510516 -0.10504846 0.014480896 -0.10475856 -0.07921479 0.1349647 -0.04865048
0.029321156 -0.07443664 -0.06906043 0.055330515 -0.0030103105 0.050550446 -0.112548776 0.0070489584
0.07797936 0.01524737 -0.00014372774 -0.037065532 0.102791615 0.05725758 -0.0050418857 -0.046850268
-0.15830527 0.00435268 -0.034715734 -0.0045275213 -0.014883506 -0.062142596 -0.022387952 0.012076175
-0.08417424 -0.02576722 -0.053047966 0.008725117 -0.1448688 0.085889675 0.09815178 -0.09800395
00000000: e842 bdbd 631e 8abd 31ee 613c a591 8b3c
00000010: 09dc f5bc 1bd8 0bbe bce7 83bd 40d2 1a3e
00000020: 213a 7dbd a05e 0c3d 8d99 033d aadd 90bc
00000030: b4ab 0dbd ee99 053e 66a9 453d a264 5d3e
00000040: 96ea c1bd f6d1 a0bd 9157 cabd bba4 42bd
00000050: 0ce6 a3bd 11ea aebd 66a9 0dbe bdf0 143d
00000060: 7773 89bd eb28 acbd c5a4 833b 3ba9 5bbd
00000070: 360a 3f3e ff7c 913d d990 01be 3e0c a2bd
00000080: d587 82bd ba5b 11bd b436 bebd 4537 a1bd
00000090: bd96 c2bc 956e 41bd a4a0 c13c 3320 1abc
000000a0: 6b3d a5bd 88bb 20bd 588d 8fbc c31b 2e3a
000000b0: 755b 1b3e 8528 333e 2d3c 3f3c c3a8 b1ba
000000c0: 0833 d33c ec20 0bbb 5e58 14bd 695b ec3d
000000d0: 32ad a2bd 378e 23bd f3fa 49bd a3bf 51be
000000e0: 0dd2 c8bd 0179 7e3c d611 bebd 89e0 a93d
000000f0: 2bff 16be 7817 f4bc d465 65bd 1bfc 02be
00000100: 844b c1bd 7587 f4bd 2d43 a73c 4b44 de3a
00000110: bf30 61bd a92c 7f3c 6549 d23d 9ef7 aebd
00000120: c99e 7ebd bb3b 3fbd 624b 9ebc f67e a0bd
00000130: 4bfe 3e3e a7e4 733d 6eaf 50bd 6ba8 05be
00000140: 0ca3 8abd a7bc 993d 2b2a a83d c5ad e3bd
00000150: 31c0 463d 419a bdbc eb13 cebc cee0 12bd
00000160: e986 133e 5411 293e a623 d7bd 4841 6d3c
00000170: a88b d6bd 5d3b a2bd 3034 0a3e ba45 47bd
00000180: ec32 f03c 3d72 98bd 8e6f 8dbd 40a2 623d
00000190: a148 45bb fc0d 4f3d f97f e6bd f3fa e63b
000001a0: a5b3 9f3d 1bd0 793c 9fb5 16b9 07d2 17bd
000001b0: 6984 d23d ed86 6a3d 6736 a5bb 11e6 3fbd
000001c0: c71a 22be eda0 8e3b 1632 0ebd 9a5b 94bb
000001d0: f3d9 73bc 3c89 7ebd f066 b7bc 26db 453c
000001e0: 8b63 acbd c715 d3bc d348 59bd cbf3 0e3c
000001f0: 7d58 14be ede6 af3d cd03 c93d 4cb6 c8bd

actor.model.6.weight f4 [20, 128]
0.09451111 0.09484575 -0.3288712 -0.010255784 -0.09354403 0.11102088 0.030230798 -0.10094671
0.017191224 0.2872562 -0.15296638 0.055070892 -0.09128252 0.1296977 -0.22044787 0.19233379
0.09258032 0.007012406 -0.06157285 0.18627554 -0.027540267 -0.018474326 0.17597389 0.0412518
0.062027413 0.2084865 0.18426624 -0.0346144 -0.17097469 -0.29388437 -0.01502875 -0.047840238
-0.013395669 -0.017830228 0.00782433 -0.04470463 0.106865786 -0.02451344 -0.19618168 0.035892278
0.09391262 0.06664889 0.037065048 0.24530488 0.24599443 -0.22060105 0.23966782 0.0058034714
-0.037101857 0.30904058 -0.047805853 -0.059300665 -0.081937045 0.06920188 -0.027100435 0.0064209327
-0.06981721 -0.09559712 -0.026234938 0.09867152 -0.05663248 -0.07570274 -0.028155578 -0.032689355
-0.013456514 -0.0063753226 0.026452918 0.103414714 0.01695956 -0.03466332 -0.26711503 -0.04088343
0.037027672 0.04597907 -0.041143876 0.14822339 -0.021501718 0.07587445 0.12265146 -0.0053522806
0.061974775 -0.10951017 0.101668924 -0.16274369 -0.19237341 -0.03954846 0.2165169 0.25149184
0.104727484 -0.36937764 0.07624184 0.051330443 0.101485796 -0.05223698 -0.14988379 0.029377434
-0.0056412127 0.050227277 0.030464787 0.27307734 0.015095178 -0.05074292 -0.000118446005 0.13447794
-0.049139008 -0.13338922 0.3211972 -0.0079365885 0.47969168 -0.046822317 -0.18298778 -0.23280819
0.0059383945 0.208244 0.09675561 -0.026091414 0.014404014 0.06550392 -0.060621105 0.0024253437
0.16380237 -0.066136405 -0.1510726 0.06647678 0.02428799 0.15795144 -0.3431019 -0.06042845
0.04249778 -0.0013219857 0.018232722 -0.08913491 -0.07608366 -0.03795512 0.07209221 0.07945521
-0.1890166 0.3561466 -0.42112765 0.048958685 -0.25125176 -0.11317324 -0.13806637 0.42292657
-0.021839542 0.0072488883 -0.22737814 0.13841566 -0.031354725 -0.0865322 -0.23657997 -0.15143155
-0.0124017345 -0.04282887 -0.10048055 -0.057893522 0.21029061 0.23828673 -0.085511975 -0.16981168
-0.04082768 -0.082150206 -0.06959495 0.016660295 0.08320982 0.02640183 -0.06281944 0.001484468
-0.14698513 -0.17686264 -0.1446974 0.015489498 0.16940518 -0.0873335 -0.037163246 0.09879606
-0.01766519 -0.11252399 -0.06846607 0.50867444 0.3662866 -0.3622756 0.14090326 -0.19571783
-0.031114984 0.14628017 -0.022040717 -0.11668435 -0.19098318 -0.23028463 -0.11783479 -0.0076140114
0.046860553 -0.090663575 -0.05518933 0.013947543 0.13949156 0.13579322 -0.13562402 -0.015382999
0.0019482551 -0.0012577166 0.07284113 -0.050746016 -0.0068175453 0.10574081 -0.17714967 -0.15920657
0.07245318 0.21034953 0.0397359 -0.30986908 -0.057955027 0.014562292 -0.17742659 0.0016307294
-0.11326421 -0.17856912 0.058937706 -0.27923417 0.039134637 -0.025486894 -0.098383315 -0.0714493
-0.02758927 -0.0521642 0.098963924 0.01490067 0.07133765 -0.09800064 0.026252383 -0.05247609
-0.03574951 -0.09521973 -0.017862448 -0.010237271 0.15993257 -0.04644867 -0.07970014 -0.05941063
-0.21511737 -0.1897297 -0.06666881 -0.0025882563 -0.013665821 0.0013073632 -0.042602155 0.1049676
-0.030245988 -0.04075413 -0.029357774 -0.26607373 -0.13686527 0.09462045 -0.25445887 -0.03303857
00000000: 0a8f c13d 7d3e c23d ce61 a8be e007 28bc
00000010: 0394 bfbd ea5e e33d 94a6 f73c 26bd cebd
00000020: 9cd4 8c3c 3f13 933e 38a3 1cbe 0492 613d
00000030: 54f2 babd 79cf 043e 16bd 61be 26f3 443e
00000040: c09a bd3d 53c8 e53b d033 7cbd 04bf 3e3e
00000050: 209c e1bc 7857 97bc 8032 343e a6f7 283d
00000060: 7510 7e3d 7c7d 553e 4ab0 3c3e d4c7 0dbd
00000070: fd13 2fbe 0378 96be 253b 76bc 20f4 43bd
00000080: 8279 5bbc b310 92bc 9e31 003c 341c 37bd
00000090: 73dc da3d 69d0 c8bc dae3 48be c803 133d
000000a0: 4255 c03d 377f 883d 85d1 173d 3431 7b3e
000000b0: f7e5 7b3e 3ee5 61be 7b6b 753e 0c2b be3b
000000c0: 1ef8 17bd 913a 9e3e 12d0 43bd 41e5 72bd
000000d0: 9cce a7bd b7b9 8d3d bb01 debc b066 d23b
000000e0: 53fc 8ebd 6cc8 c3bd a7ea d6bc 4b14 ca3d
000000f0: 76f7 67bd 0a0a 9bbd 87a6 e6bc 46e5 05bd
00000100: b678 5cbc 15e8 d0bb cab3 d83c 18cb d33d
00000110: c6ee 8a3c 20fb 0dbd 4dc3 88be 6275 27bd
00000120: 54aa 173d 8d54 3c3d 7b86 28bd dfc7 173e
00000130: 5f24 b0bc 1064 9b3d b030 fb3d 2f62 afbb
00000140: 43d9 7d3d de46 e0bd cc37 d03d 48a6 26be
00000150: 89fd 44be 91fd 21bd 9bb6 5d3e 8ac3 803e
00000160: 5d7b d63d 111f bdbe af24 9c3d df3f 523d
00000170: c9d7 cf3d 72f6 55bd 237b 19be f2a8 f03c
00000180: ecd9 b8bb 1ebb 4d3d 4a91 f93c cbd0 8b3e
00000190: c451 773c cfd7 4fbd 3766 f8b8 96b4 093e
000001a0: fc45 49bd 2f97 08be f673 a43e 7708 02bc
000001b0: 269a f53e c2c8 3fbd 2661 3bbe 4565 6ebe
000001c0: dd96 c23b ea3d 553e ce27 c63d a9bd d5bc
000001d0: d0fe 6b3c eb26 863d d64d 78bd 84f2 1e3b
000001e0: cfbb 273e 8672 87bd c7b2 1abe fa24 883d
000001f0: 9bf7 c63c 06be 213e 0dab afbe d383 77bd
00000200: 2712 2e3d 7b46 adba ca5c 953c 5d8c b6bd
00000210: c0d1 9bbd d476 1bbd 15a5 933d 6ab9 a23d
00000220: 918d 41be d958 b63e 0b9e d7be e788 483d
00000230: 12a4 80be 5fc7 e7bd 4561 0dbe d589 d83e
00000240: d7e8 b2bc 1588 ed3b d1d5 68be d6bc 0d3e
00000250: d06d 00bd cb37 b1bd 0542 72be df10 1bbe
00000260: a530 4bbc 536d 2fbd bfc8 cdbd c221 6dbd
00000270: 6c56 573e 7001 743e e720 afbd 1de3 2dbe
00000280: ed3a 27bd 5e3e a8bd cc87 8ebd 2c7b 883c
00000290: e969 aa3d a748 d83c 7ba7 80bd 7b92 c23a
000002a0: 4583 16be 7b1b 35be 8e2b 14be aac7 7d3c
000002b0: 8d78 2d3e e8db b2bd 7d38 18bd 9755 ca3d
000002c0: 97b6 90bc fa72 e6bd f037 8cbd 7d38 023f
000002d0: eb89 bb3e 307c b9be f248 103e 416a 48be
000002e0: dae4 febc 78ca 153e bc8e b4bc 34f8 eebd
000002f0: 1891 43be bccf 6bbe 5e53 f1bd f57e f9bb
00000300: daf0 3f3d d3ad b9bd 350e 62bd 3c84 643c
00000310: e0d6 0e3e 610d 0b3e 06e1 0abe f908 7cbc
00000320: 985c ff3a f7d9 a4ba bb2d 953d 0edb 4fbd
00000330: b765 dfbb a38e d83d b966 35be 0c07 23be
00000340: 5562 943d de65 573e 1cc2 223d 29a7 9ebe
00000350: 4062 6dbd ae96 6e3c 51af 35be 33be d53a
00000360: 11f7 e7bd d3da 36be aa68 713d c8f7 8ebe
00000370: a44b 203d e4c9 d0bc 317d c9bd 0354 92bd
00000380: e502 e2bc 21aa 55bd 99ad ca3d f121 743c
00000390: 7919 923d 8fb4 c8bd 3d0f d73c 2bf1 56bd
000003a0: 146e 12bd 9002 c3bd 4554 92bc 3aba 27bc
000003b0: 5dc5 233e f640 3ebd d439 a3bd 9058 73bd
000003c0: ba47 5cbe 8148 42be a889 88bd bc9f 29bb
000003d0: 9ce6 5fbc d45b ab3a 997f 2ebd 41f9 d63d
000003e0: 6fc6 f7bc cded 26bd b77f f0bc d13a 88be
000003f0: 6926 0cbe 5ec8 c13d 6f48 82be 7453 07bd

actor.model.6.bias f4 [20]
-0.09878399 -0.09758788 0.049540654 -0.12570126 0.000803466 -0.113500915 -0.19881374 0.029195756
-0.086223595 -0.13670982 0.025809884 -0.08173765 0.11430343 -0.17041358 -0.06764209 0.0045745536
0.0050953464 0.022795 -0.050259206 0.13169342
00000000: 434f cabd 28dc c7bd 24eb 4a3d d5b7 00be
00000010: b19f 523a 2b73 e8bd d495 4bbe f02b ef3c
00000020: ff95 b0bd a9fd 0bbe 406f d33c 1266 a7bd
00000030: eb17 ea3d e680 2ebe f087 8abd 23e6 953b
00000040: ddf6 a63b 94bc ba3c 99dc 4dbd a4da 063e

actor_old.model.0.weight f4 [128, 51]
0.1309864 0.18764384 0.0045842817 0.020639382 -0.09900635 0.4653762 0.019690463 -0.22351621
0.06772859 -0.17717971 0.5439469 0.09098734 -0.040213883 0.11418554 0.16612782 0.2315134
-0.12704146 0.33617043 0.51593375 0.0867909 0.037454396 -0.36741054 -0.3097725 -0.0695456
0.26158518 0.05169981 0.0732351 -0.066143185 0.11728032 -0.020393874 -0.25668153 -0.2863985
-0.032946892 -0.08708259 0.007618428 0.42852923 0.109928966 0.0038832952 -0.006208317 0.023100726
-0.1015136 -0.31926817 -0.07046399 0.10862114 -0.10685052 -0.1671888 -0.062200315 0.15656398
0.048787016 -0.13254292 -0.041161608 0.15232462 -0.04629224 0.1234161 -0.14650497 0.008666883
0.032303117 0.27789098 0.1246966 -0.2391968 -0.2791505 -0.024445752 0.13292108 -0.17503995
-0.09944674 -0.053010415 -0.14258076 -0.1289164 0.28921044 -0.08766704 0.06904311 0.13660812
-0.021847434 0.0345645 0.20046458 0.04168823 0.390745 -0.02079725 -0.13661039 0.16834705
-0.11913525 0.18515861 0.024728933 -0.05388666 0.13413702 0.09983454 0.19884536 -0.18495104
0.06563599 0.0051051774 -0.15531056 -0.082244255 0.25912163 0.09002941 0.008446841 0.20433956
-0.08268249 -0.06278332 -0.047589462 0.070739165 -0.107722044 0.14182772 -0.118521154 0.17345977
0.019381704 -0.25038955 0.064400464 -0.32213828 0.14556 -0.13646714 -0.1694355 -0.009315602
0.10236028 0.027175216 0.121977925 0.06279062 0.1706497 0.027340531 0.3398012 -0.039761513
0.17751153 0.23092085 -0.068004966 -0.18640423 0.11207656 -0.08065087 0.0150031755 -0.27179196
0.022530865 0.10944239 -0.013181088 -0.086888686 0.14578278 0.020990549 0.08076157 -0.13038768
0.045941573 0.104033366 0.18003541 -0.058393475 -0.12108902 -0.08331138 0.18956424 -0.0088005895
0.18316424 -0.057038683 0.18786287 -0.04027917 -0.07834333 0.03438303 0.047490228 0.079050034
-0.21433766 -0.003922999 -0.055959642 0.10661927 0.032321647 0.0065748543 0.11075531 -0.12993295
-0.113606706 -0.12456918 -0.089757666 0.035423726 -0.045126602 -0.094049335 -0.0880298 0.060151786
0.025100425 -0.014343336 0.09553525 0.11831017 0.017937109 -0.06580337 0.100599214 -0.0044029355
0.0101477355 0.029636905 -0.12160967 0.072058424 0.082160085 -0.11550294 -0.058186002 -0.09015772
-0.025174357 0.049375966 -0.013648421 0.025585294 -0.02605899 -0.120319985 -0.0012226999 -0.037582025
0.07335235 -0.0654703 -0.1198053 0.11219238 0.049539402 -0.04542528 0.1342478 -0.09537916
-0.027188241 0.061701357 0.0323496 0.09311272 0.0260814 0.05308579 0.24346322 -0.23631595
0.07384636 -0.11750042 0.16780704 0.18340404 0.018649258 -0.03183034 -0.3154358 0.03788995
-0.0140738385 0.017096296 -0.06850346 -0.0075311405 -0.040912695 -0.07821779 -0.053859077 0.021063754
0.075844675 -0.08513022 -0.1205792 -0.09183418 -0.20786959 0.09532985 -0.035781655 -0.056427434
-0.044901844 0.073462926 0.110993445 0.18103495 0.08658984 -0.00064709526 0.13838361 -0.2267731
0.11707661 -0.07463261 0.03898493 -0.040434387 -0.050505478 0.1006566 0.025955608 0.018590964
-0.09645084 0.13173543 0.017423084 0.110862695 0.010327125 0.01532985 0.09930445 0.08239877
00000000: 4d21 063e b525 403e be37 963b ec13 a93c
00000010: d7c3 cabd ca45 ee3e e54d a13c 6fe1 64be
00000020: 49b5 8a3d 996e 35be 1b40 0b3f 9257 ba3d
00000030: 50b7 24bd 1cda e93d 691d 2a3e d911 6d3e
00000040: 2817 02be 881e ac3e 3c14 043f 6dbf b13d
00000050: c869 193d 3c1d bcbe 809a 9ebe ec6d 8ebd
00000060: 7eee 853e 2ec3 533d 49fc 953d 1476 87bd
00000070: aa30 f03d 0e11 a7bc c36b 83be d3a2 92be
00000080: 52f3 06bd 5b58 b2bd 02a4 f93b 2f68 db3e
00000090: 7022 e13d e27e 7e3b 236f cbbb bc3d bd3c
000000a0: 5de6 cfbd 1e77 a3be 6d4f 90bd c374 de3d
000000b0: 72d4 dabd 8a33 2bbe c2c5 7ebd 4f52 203e
000000c0: e5d4 473d 55b9 07be 1399 28bd fcfa 1b3e
000000d0: ef9c 3dbd 95c1 fc3d 6605 16be 8bff 0d3c
000000e0: 4650 043d ba47 8e3e ee60 ff3d 02f0 74be
000000f0: d0ec 8ebe 7542 c8bc 771c 083e ac3d 33be
00000100: bbaa cbbd 7321 59bd b100 12be a902 04be
00000110: 6413 943e c78a b3bd 7966 8d3d 00e3 0b3e
00000120: 64f9 b2bc 8193 0d3d 9646 4d3e 47c1 2a3d
00000130: bb0f c83e ff5e aabc 98e3 0bbe 2b63 2c3e
00000140: 2ffd f3bd 389a 3d3e 5594 ca3c 42b8 5cbd
00000150: 375b 093e 0d76 cc3d 1e9e 4b3e ce63 3dbe
00000160: 296c 863d 5549 a73b bb09 1fbe ad6f a8bd
00000170: 97ab 843e 5761 b83d 9e64 0a3c 643e 513e
00000180: 7055 a9bd 8b94 80bd 2bed 42bd b2df 903d
00000190: 609d dcbd 493b 113e 38bb f2bd 709f 313e
000001a0: 61c6 9e3c 0f33 80be 64e4 833d 4fef a4be
000001b0: ae0d 153e 0bbe 0bbe 8080 2dbe 77a0 18bc
000001c0: 44a2 d13d 8f9e de3c 90cf f93d 5e98 803d
000001d0: ccbe 2e3e 40f9 df3c 6cfa ad3e f8dc 22bd
000001e0: 95c5 353e 8476 6c3e 3046 8bbd c0e0 3ebe
000001f0: 6588 e53d 492c a5bd e1cf 753c 5128 8bbe
00000200: a692 b83c 5523 e03d 7df5 57bc b2f2 b1bd
00000210: 1548 153e 5ff4 ab3c 5266 a53d 5984 05be
00000220: 3b2d 3c3d 720f d53d 345b 383e ff2d 6fbd
00000230: 85fd f7bd 289f aabd 211d 423e 5930 10bc
00000240: 688f 3b3e 65a1 69bd 205f 403e c5fb 24bd
00000250: 7872 a0bd 38d5 0c3d 1d85 423d fce4 a13d
00000260: 557b 5bbe 808c 80bb f035 65bd 345b da3d
00000270: b463 043d e071 d73b aed3 e23d 250d 05be
00000280: a2aa e8bd 201e ffbd ded2 b7bd 7818 113d
00000290: acd6 38bd f09c c0bd f848 b4bd b861 763d
000002a0: 689f cd3c 5000 6bbc fca7 c33d 9a4c f23d
000002b0: d8f0 923c ebc3 86bd f606 ce3d 8046 90bb
000002c0: b042 263c 18c9 f23c 7e0e f9bd 5e93 933d
000002d0: 8c43 a83d ce8c ecbd 7254 6ebd 9ca4 b8bd
000002e0: 743a cebc 743e 4a3d a09d 5fbc 4098 d13c
000002f0: aa79 d5bc 536a f6bd 0043 a0ba 9cef 19bd
00000300: c239 963d 4b15 86bd 7b5c f5bd 1ec5 e53d
00000310: d4e9 4a3d dc0f 3abd 4178 093e 2656 c3bd
00000320: e0b9 debc 90ba 7c3d 0481 043d e2b1 be3d
00000330: a9a8 d53c 7c70 593d 6c4e 793e cffc 71be
00000340: c33c 973d 0fa4 f0bd 9cd5 2b3e 45ce 3b3e
00000350: 54c6 983c 8860 02bd cd80 a1be 7e32 1b3d
00000360: f595 66bc 880d 8c3c 8b4b 8cbd c9c7 f6bb
00000370: 1294 27bd a630 a0bd 569b 5cbd e58d ac3c
00000380: 7454 9b3d c158 aebd 3af2 f6bd 8f13 bcbd
00000390: c4db 54be 4c3c c33d c98f 12bd 7420 67bd
000003a0: ffea 37bd bb73 963d 8850 e33d 3a61 393e
000003b0: 0456 b13d d4a1 29ba 6fb4 0d3e 3537 68be
000003c0: ddc5 ef3d fbd8 98bd a9ae 1f3d 879e 25bd
000003d0: d5de 4ebd 0c25 ce3d dba0 d43c 144c 983c
000003e0: 0588 c5bd a7e5 063e dbba 8e3c fb0b e33d
000003f0: 1a33 293c 0d2a 7b3c 2260 cb3d b0c0 a83d

actor_old.model.0.bias f4 [128]
0.12255993 0.116086796 0.06240888 -0.12749232 0.1319021 -0.0021518376 -0.11355339 0.06914914
0.00926911 0.029312424 0.17440464 -0.07273208 -0.14453885 -0.038409423 0.062091216 0.018899309
0.110242 -0.14517726 0.023432473 -0.13270243 -0.16046046 -0.027049368 -0.13635619 0.09367935
-0.016183872 -0.06497791 0.13004227 -0.085487194 -0.018987188 0.12586689 -0.09214993 -0.03426637
-0.06640516 0.083084926 -0.0728462 0.28291732 -0.09773309 -0.12990215 0.014134045 -0.050202403
0.35874188 0.02339175 -0.0944611 0.21334593 0.041606344 -0.12803805 -0.09956008 -0.124506265
-0.00668955 0.15177676 -0.02794295 -0.10216172 -0.018073246 0.08620245 -0.1514183 0.0024911216
0.039953284 -0.005853374 -0.07635735 -0.11132397 0.11829762 -0.0040456704 -0.026411569 0.06909387
-0.030229196 -0.0747689 0.14955713 -0.11089131 -0.18726204 -0.057655256 -0.0043882523 0.105163746
-0.19015838 0.1288791 -0.10989011 -0.08481371 -0.08357846 -0.09686882 0.014349549 -0.0119525045
0.08225484 -0.08438338 -0.011970059 -0.14924273 -0.09162502 0.05256471 -0.13421936 -0.037441827
-0.13643666 0.048214734 -0.08463793 0.018751727 -0.10711487 -0.00092471583 -0.13774242 -0.17300294
-0.097840376 -0.1105062 0.005908828 0.0506893 -0.08515877 -0.008631257 -0.056411754 -0.15366432
0.053648256 0.114587426 -0.05989684 -0.111317 -0.054183416 0.008868599 0.12278273 -0.15220003
0.06458278 -0.023031054 -0.09878874 -0.033334304 0.008340004 -0.023422407 -0.059801348 -0.04739133
-0.05924894 0.08141097 -0.03836792 -0.024448661 -0.13810164 -0.008692804 -0.11367522 0.056635186
00000000: b300 fb3d eabe ed3d 74a0 7f3d 598d 02be
00000010: 5811 073e d805 0dbb ae8e e8bd 109e 8d3d
00000020: 77dd 173c 9c20 f03c 2197 323e 8ff4 94bd
00000030: fe01 14be 3353 1dbd 5c53 7e3d b9d2 9a3c
00000040: 8fc6 e13d 59a9 14be 75f5 bf3c 25e3 07be
00000050: bf4f 24be a396 ddbc f5a0 0bbe f6da bf3d
00000060: 0a94 84bc 2313 85bd cd29 053e e913 afbd
00000070: 058b 9bbc 40e3 003e 1ab9 bcbd e55a 0cbd
00000080: 6eff 87bd 6e28 aa3d 6330 95bd 8ada 903e
00000090: 4928 c8bd 1205 05be 7b92 673c 09a1 4dbd
000000a0: 04ad b73e 0ea0 bf3c d274 c1bd 5b77 5a3e
000000b0: 6a6b 2a3d 681c 03be 28e6 cbbd 24fd febd
000000c0: 0334 dbbb 5e6b 1b3e 9de8 e4bc 2a3a d1bd
000000d0: 580e 94bc e98a b03d 660d 1bbe 1642 233b
000000e0: 0ea6 233d a9cd bfbb 3e61 9cbd d2fd e3bd
000000f0: 0646 f23d 8b91 84bb 135d d8bc 1681 8d3d
00000100: 38a3 f7bc 7020 99bd 8125 193e fc1a e3bd
00000110: 9fc1 3fbe eb27 6cbd 54cb 8fbb 1760 d73d
00000120: e1b8 42be e2f8 033e 110e e1bd cfb2 adbd
00000130: 2f2b abbd 2963 c6bd 5f1a 6b3c 70d4 43bc
00000140: 3a75 a83d 32d1 acbd 111e 44bc 16d3 18be
00000150: e6a5 bbbd 184e 573d cd70 09be 9a5c 19bd
00000160: 0db6 0bbe d07c 453d a756 adbd 399d 993c
00000170: 0a5f dbbd a168 72ba 590c 0dbe af27 31be
00000180: 8960 c8bd 1351 e2bd d89e c13b 959f 4f3d
00000190: b967 aebd 1e6a 0dbc 0310 67bd 2e5a 1dbe
000001a0: 46be 5b3d d0ac ea3d 6456 75bd 2bfa e3bd
000001b0: 6eef 5dbd 9a4d 113c 8375 fb3d 53da 1bbe
000001c0: fa43 843d 9fab bcbc c051 cabd 8d89 08bd
000001d0: 83a4 083c 59e0 bfbc 42f2 74bd 691d 42bd
000001e0: 04af 72bd cbba a63d ae27 1dbd 8f48 c8bc
000001f0: 846a 0dbe 436c 0ebc 8ece e8bd 4cfa 673d
